app/src/main/assets/sign_language.tflite (tflite, 77520 bytes, 6 tensors)

sequential/dense_1/BiasAdd/ReadVariableOp f4 [64]
-0.10562361 0.13156374 -0.077679075 0.025009766 -0.46544752 -0.14877799 -0.055478357 -0.17367187
0.3633484 -0.1456522 0.45952445 0.54032916 0.29866228 -0.045799274 0.42327324 -0.1364713
0.12941869 0.00789424 0.06951363 -0.48936957 0.16479303 -0.03096693 0.17587142 0.3168939
0.7224946 0.8154106 0.0070077935 0.11279041 -0.10686646 -0.51125395 0.13916777 0.23653786
-0.27845922 0.041060053 0.6571495 -0.12733288 0.057135556 0.13368438 0.037337195 0.12598002
-0.07223096 -0.08490239 0.0045845965 0.23765981 0.20499676 0.1055885 0.09603647 0.19313008
0.41771024 -0.01482151 0.79961437 0.5426037 0.1992164 0.22378477 -0.04805839 0.3050254
-0.071644425 0.6696178 -0.08073376 -0.101685114 0.05282702 -0.11314674 0.19828835 -0.084808186
00000000: 3151 d8bd a5b8 063e 3516 9fbd 48e1 cc3c
00000010: 234f eebe 4259 18be 463d 63bd 0ad7 31be
00000020: cd08 ba3e da25 15be ca46 eb3e 0353 0a3f
00000030: 43ea 983e 0598 3bbd 45b7 d83e 22bf 0bbe
00000040: 5586 043e d856 013c 295d 8e3d a68e fabe
00000050: 81bf 283e 5cae fdbc a317 343e eb3f a23e
00000060: 68f5 383f c0be 503f a2a1 e53b a9fe e63d
00000070: cddc dabd 8ae1 02bf ff81 0e3e fb36 723e
00000080: 3592 8ebe 962e 283d f33a 283f 8d63 02be
00000090: f906 6a3d 8fe4 083e e3ee 183d e800 013e
000000a0: d3ed 93bd 4ee1 adbd 623a 963b 185d 733e
000000b0: acea 513e c93e d83d c5ae c43d e4c3 453e
000000c0: 1ede d53e ebd5 72bc 87b3 4c3f 13e8 0a3f
000000d0: 62ff 4b3e d627 653e e0d8 44bd 4a2c 9c3e
000000e0: 50ba 92bd 126c 2b3f be57 a5bd 4940 d0bd
000000f0: 2561 583d 7ab9 e7bd 1a0c 4b3e eaaf adbd

sequential/dense_2/BiasAdd/ReadVariableOp f4 [37]
-0.21709001 0.42363513 0.19583116 -0.29665804 0.017966427 0.19485226 -0.061830375 0.43117487
-0.35021314 0.13454813 -0.431966 0.029416036 0.3962929 -0.012690488 0.7647911 0.037811086
0.11016732 -0.05019921 0.0139380405 -0.21554601 0.5013415 -0.069257066 -0.025487766 -0.20763989
0.23252447 -0.123921625 -0.34642777 -0.02490396 -0.10456206 0.2794793 0.08366215 -0.3450524
-0.053673763 -0.17630562 -0.34295464 -0.10179548 -0.15097064
00000000: d84c 5ebe b4e6 d83e f787 483e 90e3 97be
00000010: 542e 933c 5a87 473e d941 7dbd f4c2 dc3e
00000020: 234f b3be fcc6 093e a62a ddbe e6f9 f03c
00000030: e7e6 ca3e c4eb 4fbc 59c9 433f ccdf 1a3d
00000040: 679f e13d b09d 4dbd 615c 643c 18b8 5cbe
00000050: eb57 003f a6d6 8dbd b8cb d0bc 8d9f 54be
00000060: e51a 6e3e 9fca fdbd fb5e b1be 6403 ccbc
00000070: a224 d6bd e917 8f3e 1057 ab3d b5aa b0be
00000080: 05d9 5bbd 7689 34be c097 afbe 267a d0bd
00000090: 0c98 1abe

sequential/dense/BiasAdd/ReadVariableOp f4 [128]
0.0946001 0.040727753 0.05094506 -0.14185223 0.10582914 -0.22435643 -0.08801182 -0.014016223
0.08973095 -0.15241173 -0.43123642 0.02816906 -0.11369738 0.18280326 0.018437963 0.16965955
-0.006658571 -0.15095346 0.2865924 0.21604946 -0.078562155 0.47338 0.07737397 0.0
-0.014419732 0.054341625 0.22473939 -0.010465333 -0.12044836 0.32994917 -0.19672085 -0.005344753
-0.11942292 0.076862805 0.048528295 -0.14144987 0.14750129 0.41285697 0.0 0.06855888
0.15247387 0.10599644 0.0 -0.015699772 -0.010940179 0.38220856 0.32110605 0.102841765
0.13800044 0.01862007 -0.006508575 -0.046458773 0.01932417 0.0 0.18946956 -0.08585371
0.45587254 0.18245077 -0.011665585 -0.26038936 -0.06757012 -0.40561083 0.09600308 0.040792648
0.33839872 -0.01814793 0.13945599 -0.102246314 -0.010735578 -0.022480546 -0.05430065 -0.0044867983
-0.16232948 0.22465022 0.0 -0.0067651025 -0.19436513 0.20339061 -0.0081665255 -0.15507811
-0.34997302 0.0 0.036761563 -0.00521549 0.1056145 0.0 0.016113684 -0.13893206
0.4207146 0.0 0.14938727 0.16901787 0.0 0.36210394 -0.092402 -0.15523635
-0.06478923 -0.17567056 -0.011252868 -0.046690658 0.09642672 -0.18895243 -0.2903095 0.0
0.27535978 0.30729917 -0.017516412 0.038893275 -0.0069114454 -0.19643311 -0.010635866 -0.024710285
0.36464292 0.01893074 -0.033586822 -0.0074954843 0.07475476 0.36866748 -0.007510639 0.0
-0.12368254 0.017806232 0.014294131 0.25009453 -0.013040646 -0.15371393 -0.1035399 0.0
00000000: b2bd c13d 25d2 263d c4ab 503d b641 11be
00000010: f3bc d83d b1bd 65be 8b3f b4bd 4da4 65bc
00000020: dcc4 b73d d211 1cbe 05cb dcbe cdc2 e63c
00000030: 2cda e8bd c730 3b3e 360b 973c 3cbb 2d3e
00000040: 2430 dabb 8b93 1abe 3dbc 923e 123c 5d3e
00000050: 32e5 a0bd dd5e f23e 3e76 9e3d 0000 0000
00000060: bd40 6cbc 5395 5e3d 1522 663e ca76 2bbc
00000070: a1ad f6bd 19ef a83e 3171 49be 0a23 afbb
00000080: 0194 f4bd 3f6a 9d3d 9bc5 463d 3cd8 10be
00000090: 940a 173e fd61 d33e 0000 0000 9968 8c3d
000000a0: 1c22 1c3e a914 d93d 0000 0000 cf9c 80bc
000000b0: 703e 33bc d7b0 c33e 0368 a43e b49e d23d
000000c0: fd4f 0d3e 1e89 983c e245 d5bb 8e4b 3ebd
000000d0: b94d 9e3c 0000 0000 4f04 423e 12d4 afbd
000000e0: 2068 e93e 60d4 3a3e 0321 3fbc c151 85be
000000f0: 3462 8abd 39ac cfbe 439d c43d 3116 273d
00000100: 9942 ad3e f8aa 94bc 8dcd 0e3e 8466 d1bd
00000110: 47e4 2fbc 1f29 b8bc 5c6a 5ebd fe05 93bb
00000120: b339 26be b50a 663e 0000 0000 cbad ddbb
00000130: a707 47be a145 503e e4cc 05bc cccc 1ebe
00000140: aa2f b3be 0000 0000 4b93 163d b3e6 aabb
00000150: 6a4c d83d 0000 0000 d800 843c 3544 0ebe
00000160: e767 d73e 0000 0000 faf8 183e 0513 2d3e
00000170: 0000 0000 b065 b93e 433d bdbd 47f6 1ebe
00000180: 37b0 84bd fce2 33be f35d 38bc b43e 3fbd
00000190: 5f7b c53d bf7c 41be 72a3 94be 0000 0000
000001a0: f5fb 8c3e 5156 9d3e 947e 8fbc 8e4e 1f3d
000001b0: 6879 e2bb c325 49be 0e42 2ebc 396d cabc
000001c0: 7ab2 ba3e a414 9b3c 5692 09bd ae9c f5bb
000001d0: 0619 993d fcc1 bc3e ce1b f6bb 0000 0000
000001e0: 464d fdbd 60de 913c ee31 6a3c 640c 803e
000001f0: 6fa8 55bc 2f67 1dbe ba0c d4bd 0000 0000

sequential/dense/MatMul f4 [128, 63]
0.2892627 0.0066071907 -0.3460994 -0.036431085 0.15261629 -1.0524397 0.05379887 0.40551573
-0.82915986 -0.3927451 -0.025750251 -0.5480224 -0.5642767 -0.2697903 0.065186165 0.24501316
-0.08947293 -0.43901065 0.21413732 -0.52769995 -0.5105652 0.10788933 -0.39420044 -0.4148318
-0.17444482 -0.402676 -0.23728245 0.49773315 -0.4733436 0.2080849 0.4070891 -0.41565663
-0.15345362 0.20802581 0.13248418 -0.10056821 0.19750644 0.4242192 0.028868428 0.26050186
-0.30470172 0.43359023 0.10649095 -0.43535444 0.038528353 -0.2299433 -0.09068615 -0.10547204
-0.4958795 -0.09006867 -0.42160168 0.26719344 -0.43183294 0.46473658 0.15185587 0.005903285
-0.16403423 -0.18708311 0.33302292 -0.15981543 -0.27444777 0.6077411 -0.4657633 -0.3526062
0.019685201 -0.13259003 -0.173585 -0.080460005 -0.4044272 0.13351785 0.31244633 -0.12303427
-0.10175985 -0.011896136 -0.1559897 0.08408488 -0.15402529 0.35465765 0.0061572357 0.062149182
-0.27913752 -0.12481323 0.07723957 -0.16699696 -0.053245626 0.35111967 -0.27620006 0.21190785
0.30996552 -0.29332882 -0.26584235 0.006258532 -0.38320723 -0.2629976 0.002916542 -0.05972393
0.30088595 0.4829626 -0.06297166 0.28817585 0.06174274 0.09341541 -0.37508306 -0.25402302
-0.25327095 -0.2075471 0.08331341 -0.008558079 -0.25566423 0.09693517 0.3811671 -0.4214833
-0.013272309 0.5694585 -0.71644974 -0.16390428 -0.2712598 -0.29409012 0.07161443 -0.14454095
-0.21263081 0.3588488 0.3507489 -0.042800393 0.6797458 0.26131934 0.00024750008 -0.021460652
0.08710047 0.27577668 -0.24500158 0.1142581 0.24610583 -0.3931034 -0.1414953 0.17569654
-0.077199474 -0.49775594 0.2758472 0.2519176 -0.50524265 -0.20424132 -0.31357753 0.96488184
-0.026665138 -0.18722737 0.72154814 0.012052664 -0.56455743 0.41205543 -0.19739635 -0.9106988
0.20351423 0.0059067183 -0.13689838 0.38789862 0.040215988 0.25755337 0.01645572 0.5434852
-0.13611524 0.42301074 0.70896995 0.13759826 0.42971385 -0.35291746 -0.005279832 -0.3153977
0.0026770658 0.17562315 -0.12738451 0.058286432 0.40336168 0.18419507 -0.11196438 0.37021092
0.62992066 -0.47308692 0.27075028 -0.9442953 -0.31039786 0.09189565 -0.5290743 -0.066543005
0.35702574 -0.3287008 -0.30485344 0.2607519 -0.11486066 -0.2702722 0.26228496 -0.22065192
0.044170886 -0.0021274397 0.31647995 0.3989349 -0.38269413 0.34275603 0.38404745 -0.13597494
0.2715881 0.023482013 0.4255793 0.008021818 -0.124220654 0.11291101 0.65091693 -0.16373107
0.27991 0.6438487 0.0367365 0.12851916 0.46231872 0.050553873 0.44646975 0.3464667
-0.079353236 0.15394305 0.29644123 0.054966804 -0.048871342 0.14504214 -0.013221987 0.08462931
0.15444122 -0.1897477 0.09020883 -0.006269782 -0.16425803 0.14205807 -0.21764846 0.13124289
0.061307617 -0.093318775 0.2242265 0.13204658 -0.17083573 0.17990193 0.2831861 -0.30190706
-0.32030398 0.2578816 -0.46484476 -0.12166905 -0.06503548 -0.33190128 -0.19560611 -0.23128663
-0.2435059 -0.22534132 -0.62865895 -0.5135058 -0.11682631 -0.0034517094 0.017603578 0.020550637
00000000: 3e1a 943e 2281 d83b f133 b1be c338 15bd
00000010: 7247 1c3e 58b6 86bf 345c 5c3d c29f cf3e
00000020: d243 54bf e315 c9be 31f2 d2bc 324b 0cbf
00000030: 7074 10bf f421 8abe 5380 853d bbe4 7a3e
00000040: 953d b7bd 01c6 e0be d046 5b3e 5817 07bf
00000050: 67b4 02bf 15f5 dc3d a4d4 c9be d564 d4be
00000060: aaa1 32be 8c2b cebe 2cfa 72be e1d6 fe3e
00000070: 185a f2be 3514 553e fc6d d03e f2d0 d4be
00000080: f222 1dbe b804 553e efa9 073e b5f6 cdbd
00000090: 213f 4a3e 4233 d93e 7b7d ec3c 8060 853e
000000a0: dd01 9cbe 8aff dd3e ed17 da3d c7e6 debe
000000b0: e8cf 1d3d 4276 6bbe a9b9 b9bd ba01 d8bd
000000c0: ebe3 fdbe ec75 b8bd 2ddc d7be 94cd 883e
000000d0: 3519 ddbe f4f1 ed3e 1b80 1b3e 5870 c13b
000000e0: 97f8 27be b792 3fbe fb81 aa3e a8a6 23be
000000f0: 6b84 8cbe ec94 1b3f 8778 eebe cd88 b4be
00000100: dc42 a13c aec5 07be 44c0 31be 37c8 a4bd
00000110: 1511 cfbe e7b8 083e f7f8 9f3e 64f9 fbbd
00000120: 7867 d0bd 03e8 42bc c4bb 1fbe b234 ac3d
00000130: ceb8 1dbe b095 b53e a3c2 c93b 2490 7e3d
00000140: 1deb 8ebe 149e ffbd c82f 9e3d 4001 2bbe
00000150: 1618 5abd f5c5 b33e 186a 8dbe 5ffe 583e
00000160: cdb3 9e3e 322f 96be 7d1c 88be 5f14 cd3b
00000170: bd33 c4be 9fa7 86be 7523 3f3b 14a1 74bd
00000180: b90d 9a3e e046 f73e 49f7 80bd c98b 933e
00000190: f5e5 7c3d 9450 bf3d e30a c0be 4e0f 82be
000001a0: bbac 81be 3a87 54be 39a0 aa3d 2f37 0cbc
000001b0: 6ce6 82be f285 c63d 5628 c33e a9cc d7be
000001c0: 1974 59bc 08c8 113f 4069 37bf 86d6 27be
000001d0: 91e2 8abe fb92 96be 96aa 923d 8b02 14be
000001e0: e4bb 59be 08bb b73e 5c95 b33e 774f 2fbd
000001f0: d203 2e3f a6cb 853e e6c2 8139 40ce afbc
00000200: bb61 b23d 9a32 8d3e b2e1 7abe 2700 ea3d
00000210: 2b03 7c3e d944 c9be 25e4 10be cbe9 333e
00000220: c21a 9ebd ded9 febe d83b 8d3e 58fb 803e
00000230: 9557 01bf a324 51be 3c8d a0be 7f02 773f
00000240: d970 dabc 88b8 3fbe 61b7 383f 8978 453c
00000250: d686 10bf eef8 d23e 4522 4abe 8e23 69bf
00000260: 0966 503e 258d c13b 172f 0cbe a69a c63e
00000270: 85b9 243d 09de 833e 25ce 863c d921 0b3f
00000280: cb61 0bbe dd94 d83e 0e7f 353f 8fe6 0c3e
00000290: 7403 dc3e 99b1 b4be 7102 adbb cf7b a1be
000002a0: b671 2f3b 8ed6 333e 1671 02be c1bd 6e3d
000002b0: 6c85 ce3e a29d 3c3e 954d e5bd 498c bd3e
000002c0: 7b42 213f 7338 f2be c89f 8a3e 56bd 71bf
000002d0: 78ec 9ebe c933 bc3d 6a71 07bf b347 88bd
000002e0: 14cc b63e 794b a8be c015 9cbe 4681 853e
000002f0: 113c ebbd 1e61 8abe 374a 863e 94f2 61be
00000300: 88ec 343d 846c 0bbb a909 a23e 3241 cc3e
00000310: 7cf0 c3be b87d af3e dea1 c43e 043d 0bbe
00000320: 980d 8b3e 5a5d c03c 88e5 d93e f16d 033c
00000330: 6667 febd e33d e73d 7ea2 263f 1ea9 27be
00000340: 5d50 8f3e 45d3 243f 0379 163d 879a 033e
00000350: 0ab5 ec3e 9411 4f3d af97 e43e 1564 b13e
00000360: f383 a2bd 3fa3 1d3e 25c7 973e df24 613d
00000370: 512d 48bd ed85 143e 08a1 58bc 2252 ad3d
00000380: d725 1e3e 394d 42be 68bf b83d be72 cdbb
00000390: 4233 28be ac77 113e 3ddf 5ebe 8964 063e
000003a0: b21d 7b3d ea1d bfbd a29b 653e 3837 073e
000003b0: 90ef 2ebe 3638 383e c5fd 903e 9093 9abe
000003c0: e2fe a3be 0f09 843e 2200 eebe 9f2d f9bd
000003d0: 5231 85bd f7ee a9be f84c 48be 67d6 6cbe
000003e0: 9c59 79be e0bf 66be cbef 20bf 1e75 03bf
000003f0: a242 efbd 1336 62bb 6135 903c cf59 a83c

sequential/dense_1/MatMul f4 [64, 128]
0.7983319 0.2349269 0.7442113 -0.347879 0.22640865 0.4366024 -0.025911639 0.11684332
-0.09142202 0.18418722 -0.42256165 -0.009760959 -0.024000764 0.27288082 -0.27430823 0.42265067
-0.07352831 0.4773862 -0.11585613 0.12097324 0.43040657 0.52300775 0.028174872 0.033078328
0.15757023 0.20581591 0.2447957 0.10870513 0.6769742 1.5819052e-05 -0.14556915 -0.14523667
0.16939832 -0.18051179 0.3056204 -0.13997065 0.4695467 0.04138823 -0.12939909 -0.23627985
-0.91043633 -0.83955985 0.03374268 0.0037756353 0.14459062 -0.23266512 -0.18149166 0.43357956
0.08939646 0.33612677 0.03882196 0.37609527 0.19647482 -0.05561976 0.19013228 0.18558173
-0.021861909 -0.16409515 0.015605433 0.4057745 -0.15428814 0.58818084 -0.07459993 -0.0080598015
-0.29302153 0.35457504 -0.2846885 -0.16431253 0.009822062 -0.086336866 -0.3498897 0.096839264
0.04484426 -0.09471442 -0.06347703 -0.4389337 0.18407625 0.24315597 0.017896947 0.44200453
-0.1691053 -0.08750364 -0.08556225 0.048938718 -0.26655182 -0.08921885 0.84407216 0.6765801
0.2904087 0.13587292 -0.193714 0.4591492 0.14915918 -0.03213024 -0.14346966 0.25150484
-0.8939328 0.03935022 -0.1530221 -0.010901755 -0.11276871 -0.44326136 0.665219 0.09336628
0.3048607 0.16864449 0.018865703 0.5702644 0.08960562 0.8595243 0.15480445 -0.124884546
-0.34628943 0.0074104075 0.14219944 -0.047202554 -0.11529136 0.07925126 -0.038783323 0.104353234
0.26135734 0.41815007 -0.16092178 -0.41472986 0.064138226 0.3319949 0.6277292 0.15273564
0.42652607 0.62222654 0.5339822 -0.18663041 0.47774005 0.30130407 0.0067416173 0.12082128
-0.014387405 0.27411905 -0.37828016 -0.19214919 0.28101778 0.41749766 -0.29685608 0.35274974
-0.12309949 -0.0100404285 0.2563994 0.14587885 0.5574749 0.78741556 -0.13179322 -0.099140346
0.019590266 0.24664678 0.1722424 -0.08149282 0.27235764 0.7084856 -0.22954957 0.010667804
-0.46396258 -0.8460855 0.015590252 -0.21915771 -0.40858313 0.35785642 -0.009066075 -0.075273015
-0.40282276 -0.63799226 0.016214266 0.047217704 0.15632449 0.033865117 0.2554672 0.2599481
0.0048063295 -0.15935494 0.06112664 0.12666005 -0.63287985 -0.12577838 0.38746518 -0.22133358
0.6313403 0.06508181 0.007445811 -0.077914044 -0.41477895 0.10125506 0.077700354 0.27221882
-0.063663006 0.29976618 -0.6291202 -0.217278 -0.44436464 0.09931422 -0.34164283 0.014085667
-0.06723382 -0.34363553 0.044377983 -0.57109684 -0.054109547 -0.16761196 0.14152026 0.19656645
-0.060771015 -0.08306937 -0.10247625 0.026438225 0.2108312 -0.07571306 1.0867772 0.9804849
0.4728463 0.04036522 -0.010860191 0.5816682 -0.052497774 0.13470542 0.100021616 0.0004869831
-1.27094 0.038998786 -0.007155852 0.54532 -0.12395813 0.038372144 -0.04833763 -0.15526123
0.7348638 0.28442842 -0.1261526 0.31883308 -0.06285046 0.7762412 -0.16830596 -0.063728556
0.0600223 -0.3278951 -0.33072057 0.14469908 -0.3116197 0.42859238 0.04525937 -0.12366307
0.58904845 0.16926816 -0.8176727 -0.3681513 0.15610644 0.2513603 0.026095124 0.14529414
00000000: 7b5f 4c3f ad90 703e a284 3e3f 321d b2be
00000010: abd7 673e 5a8a df3e a544 d4bc 8d4b ef3d
00000020: 783b bbbd 939b 3c3e 005a d8be 6eec 1fbc
00000030: 409d c4bc 09b7 8b3e 2172 8cbe ab65 d83e
00000040: 0396 96bd f76b f43e fb45 edbd d1c0 f73d
00000050: 405e dc3e d6e3 053f fdce e63c 247d 073d
00000060: 175a 213e 68c1 523e b9ab 7a3e cca0 de3d
00000070: 2e4e 2d3f 28b3 8437 1410 15be ecb8 14be
00000080: c176 2d3e 15d8 38be 477a 9c3e 7754 0fbe
00000090: 6d68 f03e b486 293d 3281 04be 58f3 71be
000000a0: 5b12 69bf 65ed 56bf c435 0a3d a670 773b
000000b0: 900f 143e c43f 6ebe f3d8 39be 24fe dd3e
000000c0: 7e15 b73d cf18 ac3e c703 1f3d 8f8f c03e
000000d0: b230 493e 8cd1 63bd 09b2 423e 2309 3e3e
000000e0: bf17 b3bc 8f08 28be eead 7f3c adc1 cf3e
000000f0: b6fd 1dbe 0593 163f d9c7 98bd 420d 04bc
00000100: eb06 96be dc8a b53e b1c2 91be 8b41 28be
00000110: b7ec 203c 62d1 b0bd be24 b3be aa53 c63d
00000120: 9dae 373d a2f9 c1bd 3f00 82bd ebbb e0be
00000130: 7c7e 3c3e e1fd 783e 9e9c 923c 6b4e e23e
00000140: f129 2dbe 1c35 b3bd 433b afbd f773 483d
00000150: 7b79 88be 5fb8 b6bd 1d15 583f 5a34 2d3f
00000160: 73b0 943e 4522 0b3e f65c 46be 9b15 eb3e
00000170: 2fbd 183e 009b 03bd b6e9 12be 3ec5 803e
00000180: c8d8 64bf b22d 213d d3b1 1cbe 469d 32bc
00000190: 48f3 e6bd 27f3 e2be cb4b 2a3f d236 bf3d
000001a0: b416 9c3e 24b1 2c3e 3f8c 9a3c d9fc 113f
000001b0: 2783 b73d c909 5c3f 0f85 1e3e 78c3 ffbd
000001c0: d94c b1be 01d3 f23b bb9c 113e 7757 41bd
000001d0: e01d ecbd 7c4e a23d 43db 1ebd 26b7 d53d
000001e0: a1d0 853e c417 d63e aec8 24be 7957 d4be
000001f0: e75a 833d 3cfb a93e dcb2 203f bb66 1c3e
00000200: a061 da3e 3d4a 1f3f 0fb3 083f 0b1c 3fbe
00000210: 589a f43e 8744 9a3e c9e8 dc3b 2671 f73d
00000220: 26b9 6bbc 5559 8c3e f0ad c1be c2c2 44be
00000230: 90e1 8f3e 41c2 d53e 85fd 97be 9d9b b43e
00000240: 961b fcbd 9c80 24bc c846 833e 4461 153e
00000250: adb6 0e3f 1194 493f cdf4 06be 180a cbbd
00000260: c47b a03c f990 7c3e 5060 303e b5e5 a6bd
00000270: 7672 8b3e 505f 353f 0b0f 6bbe 03c8 2e3c
00000280: 818c edbe 0f99 58bf 426e 7f3c e16a 60be
00000290: cf31 d1be f538 b73e e089 14bc bd28 9abd
000002a0: c93e cebe 7653 23bf c8d3 843c 5a67 413d
000002b0: 8713 203e 26b6 0a3d 99cc 823e eb17 853e
000002c0: 6a7e 9d3b f12d 23be ed5f 7a3d 2cb3 013e
000002d0: 6a04 22bf 0ccc 00be d661 c63e 45a5 62be
000002e0: 859f 213f 9d49 853d fdfb f33b 6691 9fbd
000002f0: e85d d4be d05e cf3d 5d21 9f3d 4460 8b3e
00000300: c061 82bd f47a 993e 050e 21bf 207e 5ebe
00000310: c383 e3be 4165 cb3d cfeb aebe 92c7 663c
00000320: e3b1 89bd fff0 afbe b0c5 353d 6733 12bf
00000330: f9a1 5dbd 78a2 2bbe b0ea 103e b748 493e
00000340: 07eb 78bd 4620 aabd 11df d1bd fa94 d83c
00000350: 22e4 573e 730f 9bbd 841b 8b3f 0f01 7b3f
00000360: e918 f23e 0056 253d f1ee 31bc 35e8 143f
00000370: e807 57bd 38f0 093e 22d8 cc3d c451 ff39
00000380: 29ae a2bf 31bd 1f3d a37b eabb 179a 0b3f
00000390: c3dd fdbd 1c2c 1d3d aefd 45bd cdfc 1ebe
000003a0: 0920 3c3f 9aa0 913e 262e 01be 173e a33e
000003b0: beb7 80bd beb7 463f 6658 2cbe 1e84 82bd
000003c0: f1d9 753d dee1 a7be 3554 a9be ff2b 143e
000003d0: 9e8c 9fbe 7670 db3e e461 393d 1043 fdbd
000003e0: e1cb 163f a254 2d3e 0053 51bf 547e bcbe
000003f0: 5eda 1f3e 4cb2 803e 71c5 d53c fdc7 143e

sequential/dense_2/MatMul f4 [37, 64]
0.14275159 0.13779786 0.27746508 0.05893657 0.03834915 0.1393954 0.15117137 -0.76088405
-0.30384964 -0.8673573 -7.817153e-05 0.100935094 0.34469685 -0.18148534 -0.811705 -0.18013546
0.07825749 -0.6346444 -0.0140787065 0.03509367 -0.08398996 -0.09121866 -1.4683558 0.23635685
-0.35941502 -0.4236189 0.17797692 0.30787373 -0.07049113 -0.20470527 -0.8196715 0.26549202
-0.0010939242 -0.5180074 -0.67684543 -0.041330732 -0.10682849 -0.054433916 -0.22087118 -0.6101775
-0.8708994 0.08516425 -0.23629265 -0.6432151 0.080428965 -0.20179413 0.3106115 -0.1462752
-0.03861727 0.15595822 0.22006316 0.025393665 -0.017944282 -0.21092595 -0.0031221176 -0.73899263
-0.02196287 -0.9049984 0.3531056 0.30443752 0.090762794 0.10316081 0.24473944 -0.14206895
-0.75374854 -0.12532851 -0.54302 -0.073625274 0.13434379 0.189899 -0.07229535 -1.3492191
0.108611986 -0.17946486 0.22757803 0.46392933 -0.33437642 0.40741798 -0.17548221 -0.037800323
-2.5553293 -0.7793492 0.13808198 -0.0048907646 -0.5276587 0.1784841 0.23232998 0.17147297
0.49409193 0.16302928 0.37306938 -0.56767327 0.052300107 -0.60776114 0.11782614 0.046652634
-0.083883554 -0.8366202 0.2947124 -0.19320962 0.45015144 -0.51779467 -0.19242029 -0.17576402
-0.58982927 -0.08978896 0.24175334 -0.070531346 0.21231404 -0.24234167 -0.18227385 0.18618684
0.24446511 -2.1902235 -0.19448271 0.49112356 -0.20023812 -0.22349201 -0.23141171 -0.002087099
0.28164878 0.3808785 -0.29622492 -1.3321897 -0.2528045 0.0062027015 0.5940468 -0.15255874
-0.22434309 -0.4917366 0.04511048 0.1375858 0.21119885 0.18020453 0.021598678 -0.040381555
0.28517687 -0.29705587 -0.053447872 0.16128705 -1.1736212 0.38138363 0.20877105 -0.08030368
-0.28901327 0.31847256 0.21118203 0.1500439 -0.22416739 0.16431144 0.42153874 -0.15817085
0.26020378 -0.023600252 -0.01492955 -0.6747248 -0.28322124 -0.5446956 0.27848464 -0.3486119
-0.1669901 -1.20926 0.21630691 0.070912264 0.27152723 -1.2120137 -0.35597396 0.23924439
-0.41210267 -0.30025867 0.18628104 0.12900977 0.21088007 -0.03163031 -0.54907686 0.07096058
0.03432982 -0.694641 -0.67816305 0.12074035 -0.17185342 -0.4518095 -0.18710573 -0.07027171
0.010829775 0.3894138 0.08067834 -0.0081210155 -1.3472521 0.11245369 0.12553704 0.008611994
0.22241026 -0.14116985 -0.7391286 0.24464679 0.6445202 -0.025016436 0.18296057 0.12076539
-0.15911683 -0.11227153 -0.095517285 -0.42259803 -0.77466875 0.14515139 0.094404854 0.03173069
0.19551949 0.17316438 0.157884 0.4244659 -0.117249005 -0.25728646 0.30118707 -0.037555132
0.072084635 -0.25055596 -0.05383648 -0.4061715 0.12269839 0.22280708 0.4478133 0.24714279
-0.5077843 -1.269225 -0.1929295 0.16943723 0.056550827 -1.2768935 -0.33370334 0.31256238
-0.5143004 -0.4890524 -0.5393553 0.1262635 0.08762407 -0.3084598 -0.11004573 -0.1797862
-0.14953849 -0.08659041 -0.27994332 -0.12398822 -0.11451848 -0.56529075 0.0016826569 0.04173638
-0.13054848 0.21105716 -0.30144653 0.4845811 -0.07334717 0.20376106 0.04488336 0.25556406
00000000: 792d 123e e21a 0d3e e70f 8e3e 7967 713d
00000010: 0014 1d3d abbd 0e3e abcc 1a3e 4cc9 42bf
00000020: 2e92 9bbe 210b 5ebf 05f0 a3b8 0fb7 ce3d
00000030: 1b7c b03e 4bd7 39be e6cb 4fbf 6e75 38be
00000040: 7745 a03d 0e78 22bf 60aa 66bc 61be 0f3d
00000050: ee02 acbd d9d0 babd 15f3 bbbf 8807 723e
00000060: 3f05 b8be 94e4 d8be 953f 363e a0a1 9d3e
00000070: a75d 90bd 429e 51be fed5 51bf 92ee 873e
00000080: 0162 8fba 229c 04bf be45 2dbf 6a4a 29bd
00000090: e5c8 dabd 19f6 5ebd 0e2c 62be 9834 1cbf
000000a0: 43f3 5ebf 986a ae3d b3f6 71be bfa9 24bf
000000b0: f1b7 a43d 1fa3 4ebe 7808 9f3e 2bc9 15be
000000c0: 242d 1ebd 83b3 1f3e 3d58 613e 6006 d03c
000000d0: e3ff 92bc f9fc 57be 719c 4cbb 9f2e 3dbf
000000e0: 7aeb b3bc faad 67bf 42ca b43e 3cdf 9b3e
000000f0: d8e1 b93d fa45 d33d fa9c 7a3e 867a 11be
00000100: aaf5 40bf 1e56 00be 5c03 0bbf d9c8 96bd
00000110: 6b91 093e e274 423e 960f 94bd 36b3 acbf
00000120: f66f de3d a3c5 37be 370a 693e 2588 ed3e
00000130: 6333 abbe 1799 d03e 9cb1 33be 83d4 1abd
00000140: 848a 23c0 6e83 47bf 5d65 0d3e b542 a0bb
00000150: a414 07bf 89c4 363e e9e7 6d3e 9c96 2f3e
00000160: 9ef9 fc3e 26f1 263e f302 bf3e 0953 11bf
00000170: a338 563d 3c96 1bbf d54e f13d d516 3f3d
00000180: 24cb abbd be2c 56bf 8be4 963e bed8 45be
00000190: 407a e63e 318e 04bf d309 45be 7cfb 33be
000001a0: 0dff 16bf 46e3 b7bd 308e 773e bd72 90bd
000001b0: da68 593e 6a28 78be ffa5 3abe c3a7 3e3e
000001c0: 1055 7a3e 9f2c 0cc0 7a26 47be 8c74 fb3e
000001d0: 390b 4dbe 17db 64be 31f7 6cbe b6c7 08bb
000001e0: 4534 903e 8202 c33e cbaa 97be 3185 aabf
000001f0: 976f 81be 0840 cb3b 7313 183f 5c38 1cbe
00000200: 32ba 65be e6c4 fbbe c4c5 383d 4be3 0c3e
00000210: 8344 583e 8987 383e b6ef b03c 2167 25bd
00000220: b402 923e b517 98be 28ec 5abd 6f28 253e
00000230: 3839 96bf b744 c33e 14c8 553e 4176 a4bd
00000240: 8cf9 93be d60e a33e 1a40 583e 1ca5 193e
00000250: 238c 65be 4241 283e edd3 d73e 8af7 21be
00000260: 6e39 853e 5155 c1bc 129b 74bc c4ba 2cbf
00000270: 6002 91be 2c71 0bbf 8a95 8e3e 427d b2be
00000280: 74ff 2abe 08c9 9abf 8f7f 5d3e 733a 913d
00000290: 9e05 8b3e 4423 9bbf 3842 b6be 7bfc 743e
000002a0: 1fff d2be 81bb 99be 75c0 3e3e 231b 043e
000002b0: f2f0 573e c98e 01bd 4d90 0cbf c853 913d
000002c0: 6d9d 0c3d fed3 31bf 189c 2dbf b746 f73d
000002d0: 58fa 2fbe 9353 e7be a598 3fbe 9dea 8fbd
000002e0: 5e6f 313c 3f61 c73e af3a a53d 020e 05bc
000002f0: c272 acbf 1f4e e63d c88c 003e 5219 0d3c
00000300: 84bf 633e d48e 10be 8837 3dbf b084 7a3e
00000310: 47ff 243f 45ef ccbc 045a 3b3e d853 f73d
00000320: 86ef 22be 9eee e5bd 919e c3bd c55e d8be
00000330: b150 46bf 91a2 143e 5557 c13d 0af8 013d
00000340: 4336 483e 0152 313e 58ac 213e 9853 d93e
00000350: 3f20 f0bd 0dbb 83be 3135 9a3e 69d3 19bd
00000360: 1ca1 933d df48 80be a483 5cbd b6f5 cfbe
00000370: 4b49 fb3d 8a27 643e c947 e53e 0013 7d3e
00000380: 27fe 01bf f775 a2bf 508f 45be f480 2d3e
00000390: d7a1 673d 3f71 a3bf 2adb aabe 2d08 a03e
000003a0: 31a9 03bf 1465 fabe 3013 0abf 384b 013e
000003b0: 4074 b33d 71ee 9dbe a85f e1bd e019 38be
000003c0: 9e20 19be 5056 b1bd bb54 8fbe 89ed fdbd
000003d0: aa88 eabd e5b6 10bf 998c dc3a c4f3 2a3d
000003e0: 80ae 05be 5e1f 583e 3357 9abe 041b f83e
000003f0: 0b37 96bd bda6 503e 9dd7 373d 4bd9 823e
